pytorch_model_idim_16_8_1.pt (torch_old, 14078 bytes, 5 tensors)

weight f4 [16, 29]
0.08379583 0.15105446 0.060517296 0.052734826 0.2893388 0.27616552 -0.024428854 0.13275638
-0.4628232 -0.22899783 0.00848692 -0.15053359 -1.5655402 -0.15954442 0.4135735 0.045603033
0.16353513 -0.08449879 -0.6002973 0.18647477 0.022529412 0.05933361 0.063338764 0.020791383
0.22089137 0.15304904 0.03125404 0.263772 -0.17032379 0.30940354 0.24849433 0.06827817
-1.0371373 -0.022291666 0.33400506 0.43193167 0.47430715 0.38854322 -0.16441587 0.2639216
0.35160536 2.0236676 -0.207153 -0.7618873 -0.02919518 0.23247601 0.3492015 0.97439736
-0.12975168 -0.076254204 0.13814053 0.36307245 0.4716043 -0.5280282 -0.36353073 0.20323382
0.29158327 0.25741464 0.009706317 0.14400569 -0.0032906758 -0.24621679 0.32868132 0.12212606
0.10264895 0.09808929 0.10381222 -0.7043319 -0.1291337 0.0746572 0.7908656 -1.2865317
-0.029122282 0.18292166 0.19456217 0.6381739 -4.743269 0.47968683 0.28776592 -0.0801743
-0.0848385 -0.015808484 0.24693039 0.29528543 0.21591736 0.15167168 -0.18333107 -0.076698005
0.1419265 0.15968762 -0.07979109 0.15823856 0.13698237 0.0059649255 0.116630405 -0.2513945
-0.22220573 0.015497898 -0.04694709 -1.503281 -0.034115832 0.34654066 0.31141916 0.2742949
-0.1675508 -0.3711456 0.19968924 0.03311142 0.07461398 -0.052482165 -0.039187565 0.03548917
0.34073812 0.0997546 0.37333742 0.10614948 -9.238836e-39 -1.1080425e-09 -7.7004555e-24 1.1243348e-22
-2.3056367e-13 -9.507457e-12 -4.527217e-10 -9.760296e-10 6.538047e-39 4.749983e-39 -3.411995e-39 -8.39611e-39
-1.134022e-39 -2.643535e-38 -1.1793209e-38 -1.1579143e-28 -1.7860652e-23 -1.1652856e-38 -2.0056419e-09 3.5601776e-08
-1.2643573e-08 -3.8095415e-21 -3.1233006e-38 -2.6536992e-38 -3.0123917e-19 -7.3306555e-11 -1.3229175e-14 -1.6662385e-20
-2.1144849e-24 0.16513716 0.1374113 0.050842002 -0.049687646 0.2434072 0.24459027 0.1762245
0.08149225 -0.3897378 -0.02699603 0.06451835 -0.032853775 -1.5337883 0.09076229 0.39552897
0.19011678 0.013610129 -0.09345751 -0.38995558 0.033664607 0.30274054 0.10789406 0.20838682
0.029188119 0.22208518 0.15140653 0.29572335 0.18830298 0.22388108 -0.09668493 0.014897331
0.124880955 -0.14746824 0.114635035 -0.020817382 -0.00059503404 -0.016233668 -1.1175634 -0.34126955
-0.3811109 -0.052266635 -2.7704742 -0.036779672 -0.024256151 -0.35440803 0.022152685 -0.6846993
-0.78274584 0.45985404 0.23730037 -0.20181789 -0.147262 -0.2100411 0.0796303 0.02418134
0.084249735 0.09206721 -0.21473734 0.096036956 -0.0006172665 0.16312769 0.2348086 0.27020484
0.26502913 0.18978141 0.17498344 -0.21186428 -0.026795432 0.18816127 -0.10591273 -1.4215546
0.09780147 0.2785116 0.24258609 0.041315187 -0.30759597 -0.3189386 0.20682986 0.02316517
0.06908169 -0.11995524 0.05716327 0.067740776 0.17008132 0.09817029 0.034817502 0.14776127
0.16438887 0.14808998 0.23360687 0.8466858 0.246627 0.22310123 0.11017178 0.24273105
0.26489642 0.59663033 0.20759158 0.42513332 -0.3753433 0.7896703 0.68745184 0.1614003
0.0015802913 0.08105993 0.27475908 0.17361736 0.5567901 0.080220275 -0.05174711 0.13102113
00000000: 269d ab3d 05ae 1a3e fce0 773d 7900 583d
00000010: 3724 943e 9165 8d3e 051f c8bc 4af1 073e
00000020: 2af7 ecbe 687e 6abe b90c 0b3c 7a25 1abe
00000030: 9f63 c8bf 9d5f 23be e8bf d33e 3fca 3a3d
00000040: c175 273e b40d adbd 15ad 19bf 3ef3 3e3e
00000050: 9a8f b83c cd07 733d c1b7 813d b152 aa3c
00000060: 5931 623e e3b8 1c3e 3c04 003d 200d 873e
00000070: 5c69 2ebe 246a 9e3e 4c75 7e3e 6dd5 8b3d
00000080: eac0 84bf 039d b6bc b602 ab3e 2626 dd3e
00000090: 63d8 f23e 23ef c63e a25c 28be bb20 873e
000000a0: 9e05 b43e c583 0140 eb1f 54be 0c0b 43bf
000000b0: bb2a efbc 310e 6e3e 8aca b23e 1b72 793f
000000c0: a0dd 04be 2a2b 9cbd b674 0d3e a2e4 b93e
000000d0: 1e76 f13e db2c 07bf b320 babe 871c 503e
000000e0: 674a 953e dacb 833e 3f07 1f3c 3a76 133e
000000f0: 61a8 57bb 4120 7cbe eb48 a83e 3a1d fa3d
00000100: 9d39 d23d 0ae3 c83d 809b d43d 184f 34bf
00000110: a03b 04be e0e5 983d 2b76 4a3f 12ad a4bf
00000120: da91 eebc d14f 3b3e 4e3b 473e 5d5f 233f
00000130: dcc8 97c0 8399 f53e 0e56 933e 6c32 a4bd
00000140: cfbf adbd cb80 81bc 52db 7c3e a72f 973e
00000150: 7119 5d3e d24f 1b3e 24bb 3bbe d813 9dbd
00000160: 2e55 113e 2785 233e 8369 a3bd 4a09 223e
00000170: 1b45 0c3e 6c75 c33b ecdb ee3d c8b6 80be
00000180: e689 63be e5ea 7d3c 984b 40bd 836b c0bf
00000190: 0bbd 0bbd c76d b13e 5572 9f3e 6270 8c3e
000001a0: 7092 2bbe cc06 bebe 567b 4c3e d79f 073d
000001b0: 37cf 983d 8af7 56bd 2483 20bd 185d 113d
000001c0: 3a75 ae3e 244c cc3d 1526 bf3e e664 d93d
000001d0: 1e9a 6480 c849 98b0 cff2 1499 7aec 071b
000001e0: bacb 81aa c841 27ad eae2 f8af fd24 86b0
000001f0: 6a31 4700 05b9 3300 4127 2580 f06c 5b80
00000200: 3159 0c80 80ed 0f81 ab6a 8080 78c8 1291
00000210: d5bc ac99 6ce3 7e80 a0d3 09b1 91e8 1833
00000220: 0637 59b2 a0eb 8f9d 750c 2a81 2b7b 1081
00000230: fad1 b1a0 ec33 a1ae cd50 6ea8 2d5f 9d9e
00000240: b099 2398 b719 293e 8cb5 0c3e b43f 503d
00000250: 4685 4bbd bd3f 793e df75 7a3e 3274 343e
00000260: 69e5 a63d b78b c7be c726 ddbc 3222 843d
00000270: ae91 06bd 2d53 c4bf 94e1 b93d c682 ca3e
00000280: f9ad 423e 05fd 5e3c a766 bfbd 42a8 c7be
00000290: e6e3 093d cf00 9b3e 90f7 dc3d 5b63 553e
000002a0: ec1b ef3c 4c6a 633e 500a 1b3e 0d69 973e
000002b0: 7fd2 403e 1541 653e c002 c6bd ef13 743c
000002c0: 96c1 ff3d ea01 17be c6c5 ea3d 3789 aabc
000002d0: 0ffc 1bba 78fc 84bc 510c 8fbf e2ba aebe
000002e0: f820 c3be 8a15 56bd 734f 31c0 48a6 16bd
000002f0: d6b4 c6bc f874 b5be 8c79 b53c 7448 2fbf
00000300: 0862 48bf fd71 eb3e defe 723e 59a9 4ebe
00000310: dacb 16be 0415 57be 3615 a33d f217 c63c
00000320: 208b ac3d bc8d bc3d 1be4 5bbe 06af c43d
00000330: 0ed0 21ba f20a 273e aa71 703e 4a58 8a3e
00000340: e6b1 873e 0f56 423e dc2e 333e f3f2 58be
00000350: 1882 dbbc 59ad 403e c6e8 d8bd 80f5 b5bf
00000360: 234c c83d 1399 8e3e 7d68 783e 1d3a 293d
00000370: 387d 9dbe ec4b a3be 35cb 533e e2c4 bd3c
00000380: b37a 8d3d 18ab f5bd 0824 6a3d adbb 8a3d
00000390: cc29 2e3e 810d c93d cc9c 0e3d bb4e 173e
000003a0: 8e55 283e e6a4 173e a436 6f3e 67c0 583f
000003b0: ca8b 7c3e a674 643e bea1 e13d 7d8e 783e
000003c0: 81a0 873e c4bc 183f e392 543e 13ab d93e
000003d0: ff2c c0be d527 4a3f d8fc 2f3f 1f46 253e
000003e0: c721 cf3a c002 a63d 39ad 8c3e c0c8 313e
000003f0: cc89 0e3f 874a a43d c7f4 53bd 672a 063e

bias f4 [16]
0.7206153 -0.35317275 0.8647974 0.60421014 -1.0268959e-07 0.54146 0.5471925 0.72160566
0.19444264 0.7106433 -0.05942489 0.6474924 0.03367265 -1.1255552e-05 0.6533718 -0.6335926
00000000: 3f7a 383f 0fd3 b4be 5d63 5d3f 84ad 1a3f
00000010: 3386 dcb3 1f9d 0a3f cf14 0c3f 26bb 383f
00000020: f91b 473e b8ec 353f 8367 73bd 10c2 253f
00000030: 55ec 093d 3ad6 3cb7 6043 273f 2033 22bf

weight f4 [8, 16]
-0.00014859364 -0.00023167054 -6.2954327e-06 -0.00021084395 -1.681749e-39 -0.00027392083 -0.007885468 -0.000105496845
-0.00037807086 -0.007837048 1.6506823e-09 -0.00018037493 0.011832091 -3.0666127e-15 -0.0001918164 -0.0006145469
-0.0055009355 -0.0002197658 -0.0098307375 -0.004596086 -1.1098113e-38 -0.0064415555 0.04865325 -0.0061966623
0.008152731 -0.009404692 4.682018e-09 0.00048804653 -0.017140627 1.0080702e-38 -0.0047122655 -0.027522435
3.1865349e-28 2.9155267e-28 -1.2629126e-28 2.82604e-28 8.009245e-39 5.15562e-28 -1.0031445e-28 -7.336114e-28
-4.4712323e-16 -1.4223368e-28 2.8143185e-38 -4.0546567e-29 -7.304337e-39 -2.7015532e-38 1.4882539e-26 -5.714009e-24
-5.1172843e-05 -7.533799e-08 -0.00025004998 -5.2189964e-05 1.6315192e-38 -8.247274e-05 0.005131858 -0.00017935857
-0.00079295953 0.02368513 -7.802047e-39 -0.00012180178 -0.006445758 -1.429327e-39 -0.00035107465 -0.00046197977
-0.0036481381 -0.0031633852 -0.0014253205 -0.0034537874 -1.997732e-38 -0.0042828145 0.007878337 -0.0065032626
-0.014421799 -0.017811587 7.484076e-12 -0.0027086877 -0.011922237 2.531008e-39 -0.008873698 -0.012333039
-0.24384202 0.1960756 -0.16995846 -0.111326076 0.0013040709 -0.02098715 -1.3966835 -0.021531854
0.3885286 -0.45283175 0.022948533 -2.8043046 0.0008561024 -1.5313197e-05 0.06536761 1.3701445
0.0039162296 3.2001403e-38 5.877808e-39 0.0047371667 -1.135705e-39 -0.0020960148 0.0033608126 -0.0011304667
-0.018533425 -0.07483756 -1.5929358e-10 0.00016462218 0.031262513 -1.3065073e-38 0.019519543 -0.012879291
0.49415427 -0.929025 -3.3602664 0.5235354 -0.0008831348 0.53711754 0.6069376 0.45109236
0.51654625 0.41788122 -0.029386142 1.5900058 -0.11700574 9.899506e-07 0.42100832 -0.57068884
00000000: cdcf 1bb9 96ec 72b9 5b3d d3b6 fe15 5db9
00000010: 0850 1280 089d 8fb9 0d32 01bc 303e ddb8
00000020: d037 c6b9 f666 00bc 38de e230 0723 3db9
00000030: 63db 413c 05f9 5ca7 5322 49b9 8b19 21ba
00000040: 3141 b4bb ef70 66b9 1a11 21bc c49a 96bb
00000050: 06d9 7880 af13 d3bb a148 473d 5f0d cbbb
00000060: 0893 053c 2316 1abc 77df a031 7fe0 ff39
00000070: 806a 8cbc e5c4 6d00 5969 9abb bb76 e1bc
00000080: 7cf8 c911 20cb b811 db17 2091 1f1f b311
00000090: 8436 5700 5c63 2312 cd53 fe90 a17d 6892
000000a0: dfdf 00a6 784d 3491 e039 1901 7498 4d90
000000b0: 8589 4f80 2816 1381 b863 9314 ce0c dd98
000000c0: 6ca2 56b8 7fc9 a1b3 2419 83b9 8ce6 5ab8
000000d0: 1ea8 b100 37f5 acb8 2529 a83b 3312 3cb9
000000e0: 9dde 4fba 5107 c23c eff4 5480 d56f ffb8
000000f0: f036 d3bb 6290 0f80 7110 b8b9 e035 f2b9
00000100: 9a15 6fbb cc50 4fbb d2d1 baba f058 62bb
00000110: a488 d980 da56 8cbb 2414 013c 5219 d5bb
00000120: 6949 6cbc 9be9 91bc 48a9 032d 3d84 31bb
00000130: 7d55 43bc 6c8f 1b00 fd62 11bc 8410 4abc
00000140: b9b1 79be 0bc8 483e 9709 2ebe edfe e3bd
00000150: 5ced aa3a 3eed abbc 86c6 b2bf 9263 b0bc
00000160: 38ed c63e 90d9 e7be 90fe bb3c ba79 33c0
00000170: 0f6c 603a d774 80b7 74df 853d e560 af3f
00000180: b753 803b 723b 2e01 f000 4000 3c3a 9b3b
00000190: e25d 0c80 4b5d 09bb 1441 5c3b 2b2c 94ba
000001a0: 69d3 97bc 6f44 99bd 2825 2faf 6e9e 2c39
000001b0: 1f0d 003d 1c44 8e80 73e7 9f3c a903 53bc
000001c0: ca01 fd3e 95d4 6dbf 9b0e 57c0 6a06 063f
000001d0: 2c82 67ba 8980 093f 4360 1b3f 94f5 e63e
000001e0: 603c 043f 87f4 d53e 35bb f0bc 4f85 cb3f
000001f0: b5a0 efbd 72de 8435 678e d73e aa18 12bf

bias f4 [8]
0.0038572017 -0.033451382 3.5649182e-28 -0.054019634 0.018580224 -0.47921848 -0.014543676 0.55504656
00000000: 1bc9 7c3b 5104 09bd 1bf4 e111 b143 5dbd
00000010: 8e35 983c 205c f5be 9948 6ebc 8817 0e3f

weight f4 [1, 8]
0.00012537699 0.05557959 6.131516e-25 0.0007355584 0.027063763 2.3317013 0.038221966 -1.5969439
00000000: a177 0339 6da7 633d e0c2 3d17 7dd2 403a
00000010: d3b4 dd3c 983a 1540 a38e 1c3d a868 ccbf
