flask/pytorch_model.pt (torch, 5527 bytes, 5 tensors)

weight f4 [16, 29]
00000000: dd39 163b 67b5 7d3e c1f2 a7bd d3ba aabf
00000010: 6330 babc cbd6 523d 876d 283e 5ea5 8c3e
00000020: a081 b1be 21f2 ae3d 7b2c 95be 456f 7f3e
00000030: 7970 003e 7804 2abf 5fad bdbe a39a af3d
00000040: e508 983e f423 643e 832a 143f d58c 7dbe
00000050: e1a6 c1bc 709e 093d 34c4 a83e a41b 993e
00000060: f08f 5cbe 1e09 86be 8cc9 1d3e 71db f6bd
00000070: 025c e83d 29cb b1bd 7684 693c 5314 ca3d
00000080: de65 0d3d bde4 303e fe48 d73d 80f8 2a3d
00000090: b523 d53d 0c99 18be bf98 453b 6877 913d
000000a0: 2fbb 17be ea12 7cbf e796 9f3e a34a 643e
000000b0: 448f 9f3c d226 e7bc d398 46bb 0fb3 7cbe
000000c0: 81cd 723e 0635 c2bc 0e7e 023e 859d dc3d
000000d0: 0ed3 53bd cfa1 a63e 85c6 653e 85b4 68bd
000000e0: 54a5 0f3e a56e 6b3d f8a0 6d3d 1507 093e
000000f0: dc42 363e de3d 35bf a6d0 e1bd 2e72 6cbc
00000100: bc8b 3d3e 4a32 993d 5086 9d3d 62b8 b43e
00000110: adc7 afbc d55d 283f ed6f 913f 4843 0d3e
00000120: c341 8abe d256 643d 5356 943e 3e50 033e
00000130: a5d5 4e3f e908 8a3d ee3c d33d 0312 39bd
00000140: e914 41bc d8af 993e 16c1 55be eb96 e1bd
00000150: 90ab e2bd 7f9c 99bd 8cb9 383e 3595 5d9f
00000160: d6ed 28b9 5136 4cb1 f504 4eb2 8bdc 00b8
00000170: b53c 0db8 69f5 85b9 9c1e 91b9 04b4 9ca0
00000180: 3c10 1180 9cbd cd97 a67e 61a2 0936 f59d
00000190: 9b78 8500 b10f e5aa 23f9 b1b4 8506 beb3
000001a0: 9d25 73ad cf7a 1fb8 0b08 60ba 3e9d 6bba
000001b0: 2b25 e7b4 7a43 cfb2 d86a 1eb3 f20b e9b5
000001c0: 7442 9bb9 2b5b 0cb7 b1c9 4033 9af9 e2b3
000001d0: f5dd c83d c386 6c3d 65b1 823d 2859 023f
000001e0: 8952 4e3d ae5b 7a3e 46ab 17bd e72c 2d3e
000001f0: fbc6 f53c 3972 be3e 75d6 bf3e d079 7d3e
00000200: 1076 fbbe e03d 483f c6c6 b33e 58d7 e33d
00000210: 3568 96bc 1d43 d23c 2cc0 c1be 2400 8c3e
00000220: dd4c 923e d9ec c8bd e0f0 0d3e 4ad0 0c3e
00000230: ae6e 903e de3c a23e af51 1e3d cca6 943e
00000240: bf96 db3d 5816 573c 2471 1d3d bb4a 863d
00000250: c908 213f 2886 983e 1a03 a33c 1cfb 6c3e
00000260: 1e7d 693c 0b46 d53e de4c 633f af27 f73e
00000270: 3b2a 8e3e b5a0 e0bd 6862 e83f d913 b93e
00000280: 2fd2 4fbc 06e9 c63d ae84 8ebd 46a9 37bf
00000290: 7600 c13e a51b 6f3e 8c93 4fbe bfc9 64bd
000002a0: bb55 e0bd 5366 133e b092 44bc f40f 093e
000002b0: 47c3 a6bc c4eb 3e3d 6e7d 133e 8cd5 783e
000002c0: bf7e bd3e 9327 dc3e 8ca3 673e da36 693b
000002d0: 468e 0abc bca6 293e e9e4 573e 1e91 153f
000002e0: 52a5 923e 5b18 3a3e f051 d0bd a6d4 a33f
000002f0: 041c c33e b9fe 843d 24a9 4b3d 5f30 e7bc
00000300: d870 b0be 809d 163d 8752 a93e 3e25 21be
00000310: 4aff 0b3e 8a39 e13d a379 273e ab1d 463e
00000320: a8e8 433e 3d19 2b3e 4541 d0bd aead 4e3e
00000330: ee11 653e 1474 ce3d fa35 9bbf 2066 163e
00000340: 7482 c83d c856 913e 6726 a43e dbe5 93be
00000350: a537 85bf c8ee 91bd 1289 aabe 01d3 383e
00000360: eca0 f8bf 4a88 1ebf a854 be3d af51 afbd
00000370: 0880 b43e a66b 0a3f 1d5a 5a3e 26c9 563d
00000380: 7d9d 3f3e e104 bf3e 1f3b 7e3e 38bd 5dbe
00000390: 16fa 91be a481 1f3d 2a21 9e3e d321 953d
000003a0: 0ad6 1f3e 7f0f 723c fd58 783e 88df 163f
000003b0: d51c 023e 46f7 873c bc79 493e 60ae 603e
000003c0: c446 b83d 0725 163f 68df b63e 52c5 163e
000003d0: f478 dbbe 103b b43f d7eb 883e ad33 933e
000003e0: 30a0 3cbc af59 a9bd 30e1 29bf 372a 533e
000003f0: 4f0b 223e 7bd1 393e 823d 20bd dca1 233e
0.0022922673 0.24776231 -0.082005985 -1.3338264 -0.02272815 0.051474374 0.16448031 0.27469915
-0.3466921 0.08542276 -0.29135498 0.2494479 0.12542905 -0.6641307 -0.37046334 0.085744165
0.29694286 0.2227934 0.5787737 -0.24760754 -0.023639144 0.033598363 0.3296219 0.299039
-0.21539283 -0.2617883 0.15408915 -0.12053574 0.11345674 -0.08681328 0.014252773 0.09867158
0.034520976 0.17274757 0.10511969 0.041740894 0.10407201 -0.14902133 0.0030150858 0.07102853
-0.14817499 -0.9846636 0.31169817 0.22294097 0.019477494 -0.028216753 -0.0030303493 -0.2467768
0.23711206 -0.023706924 0.12743399 0.10772232 -0.05171495 0.32545325 0.2243901 -0.05681278
0.14027911 0.057478566 0.05801484 0.13381608 0.17798942 -0.70797527 -0.11026125 -0.014431519
0.18510336 0.07480295 0.07691634 0.35296923 -0.021457518 0.65768176 1.1362282 0.13795197
-0.27003297 0.05574686 0.2897211 0.12823579 0.80794746 0.06739981 0.10314356 -0.045183193
-0.0117847705 0.3001697 -0.20874438 -0.110151134 -0.11067879 -0.075005524 0.1803953 -4.692199e-20
-0.0001611033 -2.9716782e-09 -1.1991905e-08 -3.0722975e-05 -3.3673557e-05 -0.00025550582 -0.0002767936 -2.6546552e-19
-1.567027e-39 -1.3295679e-24 -3.0560233e-18 -6.490683e-21 1.2257386e-38 -4.068946e-13 -3.315009e-07 -8.84875e-08
-1.3821303e-11 -3.802293e-05 -0.00085461204 -0.00089879695 -4.3054146e-07 -2.4128656e-08 -3.6884416e-08 -1.7363329e-06
-0.00029613415 -8.365877e-06 4.488692e-08 -1.0569347e-07 0.0980796 0.057745706 0.063814916 0.5091729
0.05037168 0.24449036 -0.037028573 0.1691166 0.030002108 0.3719652 0.37468305 0.24753499
-0.49113512 0.78219414 0.3511259 0.11125058 -0.018360237 0.025666768 -0.37841928 0.27343857
0.28574267 -0.098108 0.13861418 0.13751331 0.28209442 0.31687063 0.03865212 0.29033506
0.10722112 0.013127886 0.038437977 0.065572225 0.6290403 0.29789853 0.01989894 0.23142666
0.014251022 0.41655 0.88789165 0.48272464 0.27766594 -0.109681524 1.8155031 0.36147955
-0.012684389 0.097124144 -0.069589004 -0.71742666 0.37695664 0.2335039 -0.20271128 -0.055856463
-0.10953852 0.14394502 -0.011997864 0.13384992 -0.020356787 0.046611562 0.14403316 0.24300212
0.37010762 0.42998943 0.22620982 0.0035585673 -0.008456772 0.1656751 0.21083416 0.58424556
0.28641754 0.18173353 -0.10171878 1.279927 0.38107312 0.06493897 0.049721852 -0.028221307
-0.34461093 0.036771297 0.33070776 -0.15736863 0.13671604 0.10997303 0.16354994 0.19347255
0.1913172 0.16708846 -0.10168699 0.20183441 0.22370121 0.10080734 -1.2125847 0.14687395
0.09790507 0.2838652 0.3206055 -0.28886303 -1.0407606 -0.07125622 -0.333077 0.18049242
-1.942411 -0.6192671 0.09293491 -0.08560502 0.3525393 0.5407051 0.21323438 0.052437924
0.18712421 0.3730841 0.2482724 -0.21654212 -0.28511113 0.038941994 0.30884677 0.07281842
0.15608993 0.014774202 0.24252696 0.5893483 0.12706311 0.016597401 0.19675344 0.21941519
0.089978725 0.5865025 0.3571732 0.14723709 -0.42865717 1.4080524 0.26742432 0.28750363
-0.011512801 -0.08269059 -0.66359234 0.20621572 0.15824626 0.18146317 -0.03912116 0.15979713

bias f4 [16]
00000000: f7ad bbbe a2bf 103f 403f cbbe e826 57ba
00000010: 9558 163f 550b 153f 38b4 f03e 7c38 0fbe
00000020: 5214 1c3f a8aa 863e 5857 4fbc 7bb6 27b1
00000030: 0757 063f 6f5f cb3e 6a8a 05bf 81ae 043f
-0.36656162 0.5654241 -0.39696693 -0.00082073966 0.58728915 0.58220416 0.47012496 -0.13986391
0.60968506 0.26302075 -0.012655102 -2.4405427e-09 0.52476543 0.39721248 -0.5216433 0.5182877

weight f4 [8, 16]
00000000: ad3d 453a 3570 a0bd 7773 41bc aa99 1681
00000010: f2f6 aa3b a267 38bd b97b 8fbd 869f 85ba
00000020: e747 2dbd 3b74 c8bc 3376 6400 8b41 a4b1
00000030: 9443 d5ba 1b2d 9cbc 1504 abbb 910c 26bd
00000040: 91f8 63a5 262a 02b7 ce15 901a 0890 6e80
00000050: 02a5 adb8 205f 22b7 8ccc b1b7 eecc 92b1
00000060: 9523 99b7 fac5 99b6 29a9 3581 fcab 2f01
00000070: d8a5 d184 ab6e d7af e0b8 1081 e94f 85b3
00000080: 8b55 1abf 07b8 fc3e b14e 7dbf 207f a8bb
00000090: 6273 ba3e eba2 9d3e 6474 9f3e 9755 20bf
000000a0: 36e0 b33e 476f 933e 1348 17b7 d0c5 a4b7
000000b0: df60 0740 5d31 80bf dba6 b5bf 3f17 3ebf
000000c0: 242c 1493 0bd8 84a6 4ba9 66a6 3070 2000
000000d0: f035 bdb8 10c1 42b0 842a 3b94 af28 5614
000000e0: 18ff 5594 abfe 1915 ec38 4e00 92ae 2b80
000000f0: 2fe4 1db2 97b8 3f14 34e8 6c14 0d75 68b5
00000100: 4a3c 09bf 767a cd3e 34bd 6fbf e7ce 85bb
00000110: ea2c 053f c088 603e a0b2 993e 4b9d b9be
00000120: 42b5 f93e b57c 493e c0d1 1535 b405 6900
00000130: 7b2c 3840 9b5e 6ebf c550 aabf bb57 58bf
00000140: 5221 8b3d bbb7 8f3d a563 663f ec09 5b3c
00000150: 6535 c33d c869 613d 5494 3a3e cf9b 42be
00000160: 5fe7 30bd bb86 2d3e e242 2cba 9ad5 1400
00000170: 76f6 30c0 69b7 823f 7657 c13f c619 6f3f
00000180: 883d 35bf 2a3d 033d 3b63 cfbe 9c0b 4dbb
00000190: 857b c63d fe96 393f c1aa d83e 78bc 67bf
000001a0: 3cb7 143f ab55 2c3e 0516 ecb7 b26b 94ac
000001b0: a96d d0bf 47ff d1bf b20d 07c0 5118 dfbf
000001c0: a3bc 27bf 97d1 213e 50e6 ddbe 912e 9fb9
000001d0: f05f fd3e c1a8 d93e a14e f23d 97f8 5bbf
000001e0: 5f80 033f b782 2f3c 275f 1136 d0d7 171d
000001f0: 8195 c3bf 554e b8bf 4ec2 e1bf cefd c3bf
0.0007524144 -0.07833902 -0.011807314 -2.7660897e-38 0.0052174265 -0.045020707 -0.0700602 -0.0010194636
-0.0423049 -0.024469486 9.225952e-39 -4.7804796e-09 -0.001627075 -0.019064477 -0.0052189925 -0.040539328
-1.9773329e-16 -7.758417e-06 5.959223e-23 -1.0153573e-38 -8.280018e-05 -9.6781005e-06 -2.1195294e-05 -4.272457e-09
-1.825559e-05 -4.582803e-06 -3.3365816e-38 3.2265816e-38 -4.9287967e-36 -3.9186906e-10 -2.6581264e-38 -6.207831e-08
-0.6028678 0.49359152 -0.989482 -0.0051421076 0.36416155 0.3078836 0.31143486 -0.626306
0.35131997 0.28795835 -9.017082e-06 -1.9642437e-05 2.1152875 -1.0015064 -1.4191545 -0.7425422
-1.870199e-27 -9.217899e-16 -8.0026715e-16 2.978981e-39 -9.022269e-05 -7.0851147e-10 -9.449472e-27 1.0812262e-26
-1.080406e-26 3.1099e-26 7.183588e-39 -4.01155e-39 -9.190486e-09 9.67944e-27 1.1960749e-26 -8.6597066e-07
-0.5360762 0.40132493 -0.93648076 -0.0040835026 0.5202166 0.21927166 0.30019093 -0.36252818
0.487711 0.19676478 5.581205e-07 9.644773e-39 2.8777149 -0.93113106 -1.3305899 -0.84508866
0.06793465 0.07017466 0.89995795 0.013369065 0.095316686 0.05503252 0.18220645 -0.19004749
-0.043189403 0.16945927 -0.00065712456 1.913336e-39 -2.7650428 1.0212222 1.5104816 0.933987
-0.70797014 0.032040752 -0.40505394 -0.0031287437 0.09691528 0.7249602 0.42317775 -0.90521955
0.58092093 0.16829555 -2.8143646e-05 -4.2183696e-12 -1.6283466 -1.640603 -2.110211 -1.7429296
-0.6552221 0.15802608 -0.43339777 -0.00030361538 0.49487257 0.42511562 0.118314035 -0.85926193
0.51367754 0.010712317 2.166207e-06 2.0096256e-21 -1.528 -1.4398905 -1.7637422 -1.531183

bias f4 [8]
00000000: 4c8c 503d 095c 1eb2 8a13 003f d2d9 a638
00000010: 1bcb d63e b1aa 8bbe 9e11 d33e 8a7c e33e
0.050915048 -9.217737e-09 0.50029814 7.956069e-05 0.41951832 -0.27278665 0.41224378 0.44430953

weight f4 [1, 8]
00000000: 609f 5dbd b1de ccbc f3f8 0fbf c6b9 4fb7
00000010: f2b8 20bf 8492 ac3f 59bb 03c0 6e4e 87bf
-0.05410707 -0.025008531 -0.5623924 -1.2381415e-05 -0.62782204 1.3482213 -2.0583098 -1.057081
