weights/classifier_weights_29x8x1.pt (torch_old, 1841 bytes, 3 tensors)

layers.0.weight f4 [8, 29]
0	0xbf07c222	-0.530306
1	0xbeb52086	-0.35376376
2	0x3dcaa8d9	0.098954864
3	0xbed1205d	-0.40845004
4	0x3dfad73d	0.12248085
5	0x3bfef6f3	0.0077809035
6	0xbdcd29db	-0.10017749
7	0xbd454e0b	-0.04817013
8	0x3dc82a7f	0.097737305
9	0x3f1ee092	0.6206142
10	0xbedd162c	-0.43180978
11	0xbf69d45c	-0.9133966
12	0xbf9904a2	-1.1954539
13	0x3f05d48d	0.5227745
14	0x3fa05bb4	1.2527986
15	0xbdee51de	-0.11636709
16	0x3f0044a2	0.50104725
17	0x3eaa9d21	0.33323005
18	0x3d8f916a	0.070101574
19	0x3c3349f7	0.010942928
20	0xbb93af88	-0.004507009
21	0xbfec969a	-1.848346
22	0xbf6ad450	-0.91730213
23	0xbf359e6c	-0.7094486
24	0x3f35160e	0.7073678
25	0x3eb23bf0	0.34811354
26	0x3e22bbce	0.15891954
27	0xbeaa8225	-0.33302417
28	0xbdb9b8aa	-0.09068425
29	0xbc68a2c6	-0.014198964
30	0xbd47a37c	-0.048739895
31	0x3d9746f4	0.0738658
32	0xc0016262	-2.0216298
33	0x3ca82bd2	0.020528708
34	0xbc39c500	-0.011338472
35	0x3b8eb8e3	0.0043555363
36	0xbcdb68eb	-0.026783427
37	0xbfb14a04	-1.3850713
38	0xbff77f25	-1.9335676
39	0xbfb303ca	-1.3985531
40	0xbfbe5cf4	-1.4872117
41	0xc0b233c3	-5.5688186
42	0xc096b223	-4.709245
43	0x3eb81008	0.3594973
44	0x3e132826	0.14370784
45	0x3e11aca7	0.14226018
46	0xbc5121d5	-0.012764414
47	0xbc1570de	-0.009121148
48	0x3e481e3d	0.19542785
49	0x3d9a8e4b	0.075466715
50	0x3b047bbb	0.002021535
51	0x3bf24105	0.007393005
52	0x3ebaf00a	0.3651126
53	0x3e05fb02	0.13084033
54	0x3dc11138	0.09427112
55	0x3dde54c6	0.10856013
56	0x3da3688a	0.079789236
57	0xbe3a847e	-0.18214604
58	0x3e4a5895	0.19760354
59	0xbe42cac6	-0.19022664
60	0x3d6ef60d	0.05834012
61	0x402bc867	2.6841066
62	0xbe7274bd	-0.23677345
63	0xbbd40870	-0.0064707324
64	0xbe104519	-0.14088859
65	0xbdc3e827	-0.09565764
66	0x3fe54ba2	1.7913706
67	0x4040b4dc	3.0110388
68	0x3fa46372	1.2842848
69	0x3f2ea2b8	0.6821704
70	0x3ffadd5a	1.9598801
71	0x40c0eeff	6.0291743
72	0x3f0ee39e	0.55816066
73	0x3e3c863d	0.18410583
74	0x3d69709e	0.056992166
75	0x3db9bf92	0.09069742
76	0x3bc248ce	0.005929089
77	0xbebd4be1	-0.36971954
78	0xbe392b5a	-0.18082944
79	0xbbe52cf5	-0.0069938847
80	0xbbc86124	-0.0061150957
81	0x3e86d0ce	0.2633118
82	0x3e7a2000	0.2442627
83	0x3b36633c	0.0027830144
84	0x3dffacbc	0.12484118
85	0xbe76a482	-0.24086192
86	0x3cd0eddd	0.025504047
87	0x9f52334b	-4.4511658e-20
88	0xba76517f	-0.0009396299
89	0xb2e5b1d6	-2.673998e-08
90	0xb66fcca8	-3.57329e-06
91	0xb9831ca0	-0.00025007594
92	0xb82af956	-4.076337e-05
93	0xba01965f	-0.00049433665
94	0xba430873	-0.00074399187
95	0x1fc5926c	8.367498e-20
96	0x1ed639f6	2.2682103e-20
97	0x1f22377c	3.435073e-20
98	0xa00edae7	-1.2100297e-19
99	0x1ffef2e6	1.07975026e-19
100	0x9f69ec5d	-4.9535184e-20
101	0x230d6422	7.664829e-18
102	0xb1b11e78	-5.154842e-09
103	0xb079d61f	-9.0889957e-10
104	0xa7bbac67	-5.2089845e-15
105	0xb927f89f	-0.0001601898
106	0xbb08d30f	-0.0020877754
107	0xbae441cb	-0.0017414627
108	0xb28c320a	-1.63209e-08
109	0xa05243ee	-1.7810168e-19
110	0xb013306b	-5.3547095e-10
111	0xb7d2461f	-2.5066603e-05
112	0xba0c1107	-0.00053431134
113	0xb6d943eb	-6.4750107e-06
114	0xb57460ee	-9.1038135e-07
115	0xb51ccc4d	-5.8411825e-07
116	0xbd61f1a9	-0.055162106
117	0x3e2f5156	0.17120871
118	0x3e14a492	0.14515904
119	0xbdd25582	-0.102702156
120	0x3e2b0493	0.16700964
121	0x3cc972f8	0.024590954
122	0x3ccffa2c	0.025387846
123	0xbcd85caa	-0.026411373
124	0xc003a2c7	-2.0568101
125	0x3dceae3b	0.100918256
126	0xbfa83e2f	-1.3143977
127	0xbea7fe03	-0.32810983
128	0xc09e0fe7	-4.939441
129	0xbea83d71	-0.32859376
130	0xbf106c3b	-0.56415147
131	0xbeec3cb7	-0.46140072
132	0xbf1110a0	-0.5666599
133	0xbfaaa838	-1.3332586
134	0xbc58be27	-0.01322893
135	0x3e94ae36	0.29039162
136	0x3db4ae89	0.088223524
137	0x3d8651c6	0.06558566
138	0xbcfdf815	-0.031002084
139	0xbf0df26d	-0.5544804
140	0x3e2e2af2	0.1700857
141	0xbd2af01d	-0.041732896
142	0x3e9cccb9	0.3062494
143	0x3be4f025	0.0069866353
144	0xbe5f000d	-0.21777363
145	0xc0893743	-4.287996
146	0xbdddf52f	-0.10837781
147	0xbe96edc7	-0.29478285
148	0xbfafa9d1	-1.3723699
149	0x3d116871	0.035499994
150	0xbcd63201	-0.02614689
151	0xbd724e18	-0.059156507
152	0xbe05bde2	-0.13060716
153	0x3f539ef6	0.8266443
154	0xbfb5f17b	-1.4214319
155	0xbef8b27b	-0.4857367
156	0xc00326dc	-2.0492468
157	0x3e808915	0.25104585
158	0xc0087738	-2.1322765
159	0x3fd9ac4f	1.700571
160	0xbea70238	-0.3261888
161	0xbdb3c8d5	-0.0877854
162	0x3f0efa26	0.55850446
163	0x3ce50e81	0.027961018
164	0x3d04445f	0.032291766
165	0x3dc3c022	0.09558131
166	0xbe712dc7	-0.23552619
167	0xbe79d73c	-0.24398512
168	0xc00d1230	-2.204235
169	0x3efe9a4c	0.49727094
170	0x3f04b280	0.5183487
171	0x3e7afb8e	0.24510023
172	0xbebb1a96	-0.3654372
173	0xbe311b94	-0.17295676
174	0xbe7278c4	-0.23678881
175	0xbe28c64a	-0.16481891
176	0x3d4d4238	0.05011198
177	0x3f182dd7	0.59444946
178	0xbd7cb9aa	-0.0617005
179	0xbd8b21df	-0.0679357
180	0xbe7bc20b	-0.2458574
181	0xbde48954	-0.11159006
182	0xbee74014	-0.45166075
183	0x3faa6de1	1.3314782
184	0xbf2eea17	-0.6832594
185	0xbe21e6e6	-0.15810737
186	0xbfb8f074	-1.444838
187	0x40093359	2.143759
188	0x3f0ffcc3	0.5624506
189	0x3eabed41	0.33579448
190	0x3d084d4c	0.03327684
191	0xbeb56dd4	-0.35435355
192	0xbbb5b93b	-0.005545763
193	0xbcc43676	-0.02395175
194	0x3dcb3c07	0.09923559
195	0x3f559f7d	0.83446485
196	0x3c0b431a	0.008499885
197	0xbf6575b5	-0.8963273
198	0x3f0d7cff	0.55268854
199	0x3dcb161c	0.099163264
200	0x3d104357	0.03522047
201	0xbe101d1b	-0.14073603
202	0xbe9c0fd8	-0.30480838
203	0xbd06bc7e	-0.032894604
204	0xbda072d6	-0.07834403
205	0x3e89f9a2	0.26948267
206	0x3e5dc7d8	0.21658266
207	0x3e73434a	0.23756137
208	0x3c98d094	0.018654145
209	0xbe295682	-0.16536906
210	0xbe0d1845	-0.1377879
211	0xbfb27509	-1.3941966
212	0x3d3611cf	0.044450577
213	0xbf64f655	-0.8943837
214	0xbf16fbcf	-0.5897798
215	0xc0662b63	-3.596398
216	0xbd9732e2	-0.07382752
217	0x3f033a41	0.51260763
218	0x3dba1813	0.09086623
219	0x3cab4a1a	0.020909358
220	0xbe16fea9	-0.14745583
221	0xbc173128	-0.009228028
222	0x3e0fdb1b	0.14048426
223	0x3e17e764	0.14834362
224	0x3e1348ad	0.14383192
225	0xbcf8e252	-0.030381355
226	0xbe878f69	-0.264766
227	0x3e6bc920	0.23025942
228	0x3e4b0fe5	0.19830282
229	0xbd7f2642	-0.062292345
230	0xbdb94304	-0.09045985
231	0xbe38d900	-0.18051529

layers.0.bias f4 [8]
0	0x3f0be2a1	0.54642683
1	0x3eb885a3	0.36039457
2	0xbe3a79d5	-0.18210538
3	0xbb209633	-0.0024503588
4	0x3e8f7995	0.28022447
5	0x3efb4988	0.49079537
6	0xbdb24a7c	-0.08705613
7	0x3df865b6	0.12128775

layers.1.weight f4 [1, 8]
0	0xbfb3e1a5	-1.4053236
1	0xc086b8ae	-4.210044
2	0xc03b575e	-2.9272075
3	0x3d0b2e51	0.033979718
4	0xc018ff09	-2.390566
5	0xc0283839	-2.6284316
6	0xbf9e2c94	-1.2357354
7	0xbf821d6f	-1.0165232
