weights/classifier_weights_29x16x8x1.pt (torch_old, 3603 bytes, 5 tensors)

layers.0.weight f4 [16, 29]
000000 88 04 41 3d 56 e3 18 3e 5e 74 11 3e 97 2f a7 be
       0.047123462 0.14930472 0.14204547 -0.32653496
000010 29 4c 57 3e d3 86 d8 3d 78 f1 b7 bd 14 9a ad 3d
       0.21025147 0.10572591 -0.089816034 0.08476654
000020 f4 4c 58 bf 5a 2f de be 9d ae 97 bd 04 ec b7 be
       -0.8449242 -0.433955 -0.07406352 -0.35922253
000030 12 3d 02 c0 19 4e 1c be 75 e0 b0 3c b3 38 0a be
       -2.0349774 -0.15264167 0.021591404 -0.13498192
000040 d9 47 e4 3d 1f c9 c4 be 00 9d 52 bf 73 2f 8a 3e
       0.11146516 -0.38434693 -0.82270813 0.26989326
000050 30 23 26 3e a2 1b 26 3e cb 54 ef 3d 7e 26 48 be
       0.1622436 0.16221479 0.11686095 -0.19545934
000060 14 a3 0f 3e 92 2e 37 3e 12 74 57 3c 58 ff 85 3d
       0.14027053 0.17888859 0.013150232 0.065428436
000070 b4 df 92 3c c8 38 97 93 2c 29 bd b7 f1 2b c6 17
       0.017928936 -3.817375e-27 -2.2549728e-05 1.2806542e-24
000080 8a 9e 90 0e fb 1e 26 b6 0f e6 15 8e 2e 23 d7 b8
       3.565141e-30 -2.475396e-06 -1.8476437e-30 -0.000102585516
000090 75 1f be ba c7 24 a4 8d c5 0e 4b 8e d5 92 cc 0f
       -0.0014505225 -1.0116134e-30 -2.5028793e-30 2.017251e-29
0000a0 2e b7 39 1f 65 ce b9 0c c6 93 e2 0d ad d5 0f 0f
       3.9326796e-20 2.8627982e-31 1.39639005e-30 7.091597e-30
0000b0 fb d0 02 b5 f4 44 0d b5 81 a7 58 0c 0a ce 71 ba
       -4.873288e-07 -5.2626933e-07 1.6690441e-31 -0.00092241226
0000c0 b1 02 f4 b8 a5 09 04 b7 44 19 77 8c 4d 81 ec 8c
       -0.00011635328 -7.870059e-06 -1.9035791e-31 -3.6439377e-31
0000d0 35 47 38 8d bb d5 0b b3 b8 29 ed b8 79 e2 bb a9
       -5.678509e-31 -3.2557846e-08 -0.000113088114 -8.343755e-14
0000e0 77 02 64 0d b3 80 ef 1b 6e 05 fa 00 c0 bb 68 b6
       7.026089e-31 3.9622403e-22 2.2960822e-38 -3.4679979e-06
0000f0 9b 1b 7f aa d6 42 9e af ce f0 02 36 8e 0e 60 b4
       -2.2658127e-13 -2.8787522e-10 1.9511676e-06 -2.086692e-07
000100 74 ee 8b b6 c4 11 cb 37 3a a8 04 01 05 54 0d 80
       -4.1702824e-06 2.4207759e-05 2.4365268e-38 -1.224002e-39
000110 30 74 8d 81 61 94 b1 80 87 b0 ca 80 21 b0 6f 00
       -5.196194e-38 -1.6308111e-38 -1.8614096e-38 1.0256923e-38
000120 78 a2 9f 11 c0 9a 53 b0 10 eb e5 ab ca d1 99 03
       2.5185906e-28 -7.6981266e-10 -1.6336672e-12 9.040697e-37
000130 42 b6 0b 37 39 c2 91 b9 c2 f0 5c 39 bf 3d 37 15
       8.327481e-06 -0.00027801262 0.00021070524 3.7005265e-26
000140 8a e0 97 80 a9 d4 71 80 22 7d 16 33 04 17 d2 b7
       -1.394771e-38 -1.0453699e-38 3.5038404e-08 -2.5044668e-05
000150 3a e1 1b b3 b3 a1 28 2e ab 5d 46 ae b7 e6 88 3d
       -3.6293592e-08 3.8342395e-11 -4.510318e-11 0.0668463
000160 ee ea 11 3d 7e dc 29 3e a2 1e 82 be bc e1 6d bd
       0.035624437 0.16588017 -0.25413996 -0.058076605
000170 7b d6 15 3d ed 24 8b 3d bd c2 17 3e d6 6d 89 3d
       0.036581498 0.067941524 0.1482038 0.06710403
000180 2b 83 fe 3e 1a dd d1 3e c6 86 3b 3e 46 ac 76 be
       0.49709448 0.40989 0.1831313 -0.24089155
000190 f2 16 b9 3f 72 93 6e bd 92 61 09 3e 2f 9e 06 be
       1.4460127 -0.058246084 0.13416126 -0.1314628
0001a0 61 86 e3 bd d7 5a 54 bf 14 b0 87 3e 11 05 a2 3e
       -0.11109615 -0.8295111 0.26501524 0.3164449
0001b0 b4 c8 f3 bd e8 49 7f 3e d0 ea f6 3e 8e 1b 86 3d
       -0.119035155 0.24930537 0.48226023 0.065482244
0001c0 ff 0a 97 bc ad af 45 3e 3b be 42 3e ef 1b 81 3c
       -0.01843786 0.19305296 0.1901788 0.01576039
0001d0 d2 80 2b bd a9 7f 16 3e 45 c7 8f 3d e1 7e 31 bd
       -0.0418709 0.14697136 0.070204295 -0.04333389
0001e0 16 8d 36 3e 66 c1 06 be 20 17 e3 39 d3 f8 90 bc
       0.17827258 -0.13159713 0.00043314043 -0.017696774
0001f0 ae ac 1b bf e2 d7 80 3d dd 07 87 be 72 44 a4 3c
       -0.60810363 0.062911764 -0.26373187 0.020052169
000200 6d fe de bf cc d8 ff 3e 66 55 ab 3e f8 85 be bd
       -1.7421395 0.4997009 0.3346359 -0.09302896
000210 ba 53 72 3e 33 84 5d be 3c 0a 29 bf d3 ee a7 3e
       0.23664752 -0.21632461 -0.6603124 0.32799396
000220 dd 39 7a bd 42 f6 7b be 4e 74 84 be cf f2 3b be
       -0.06109034 -0.24605659 -0.25869983 -0.18354343
000230 79 52 8d 3c d7 b3 88 3d f5 da d6 3c 04 d5 62 3c
       0.01725124 0.06674927 0.026227454 0.013844732
000240 ba 21 a7 be e9 ca 18 bc e7 d0 50 bd 3f 0f d2 bc
       -0.3264292 -0.009325721 -0.050980475 -0.025642036
000250 fc 63 06 be 06 9d 37 bd b6 20 c1 3c 19 08 e0 3c
       -0.13124079 -0.044827484 0.023575168 0.027347611
000260 4a a1 b2 3c 0f 6e 5c 3e ab 73 1f 3e cb e3 05 be
       0.021805424 0.21526359 0.15571468 -0.13075177
000270 17 05 a1 bd 06 3e 17 3f 2a 9a 61 be aa 69 13 be
       -0.07862299 0.59079015 -0.22031465 -0.14395776
000280 65 89 18 3d d5 88 a3 bb b9 7f 3f 3e 33 ff cb bf
       0.037240405 -0.004990677 0.18701066 -1.5937256
000290 86 62 b3 3e 6f e9 f4 3b da 06 ed 3b 78 77 b3 3c
       0.35036105 0.0074741165 0.007233483 0.021907553
0002a0 f4 02 ce bd 5e 49 44 3d e3 2c 62 bd 78 01 4c 3d
       -0.10059157 0.04792153 -0.05521859 0.04980609
0002b0 91 f5 fa 3d 75 cc 99 be c8 98 e6 bb 15 e2 93 bd
       0.12253869 -0.300388 -0.007037256 -0.07220856
0002c0 7b 02 e2 3c 38 14 ae be 5d 9a e4 bc e1 39 92 bd
       0.027589073 -0.339998 -0.027905637 -0.07139946
0002d0 59 3c 87 bd 87 4e 10 bd e3 32 32 bf 57 ec 00 bf
       -0.06603307 -0.03523114 -0.69608897 -0.50360626
0002e0 7c 1f 87 be f8 92 05 be 7f c4 1f c0 41 d5 dc be
       -0.26391208 -0.13044345 -2.4963682 -0.4313145
0002f0 d7 0b 8c bd ac 44 4e be 09 07 a6 bd d6 1d cb be
       -0.06838196 -0.20143384 -0.081068106 -0.396712
000300 05 1a 1d bf d8 79 21 3e da a5 ea 3e ea df df 3c
       -0.6136783 0.15769136 0.4582966 0.02732845
000310 1a 5a 54 bd 74 f5 95 bd f8 7f 9d 3d f0 69 57 3d
       -0.05184374 -0.07322207 0.07690424 0.052591264
000320 8d e8 03 3e 17 fc f2 3d be 48 ee bd 35 12 01 80
       0.1288168 0.118644886 -0.11634968 -9.8367e-41
000330 41 83 da 06 ea 97 ca 80 d0 4e 95 80 23 35 cb 80
       8.2195346e-35 -1.8605267e-38 -1.3711762e-38 -1.8661668e-38
000340 c9 10 57 80 71 c0 97 1c db 20 8d 1d bf 2b fb 00
       -7.99571e-39 1.0042087e-21 3.735636e-21 2.3066403e-38
000350 40 61 1c 00 a0 78 76 80 2a 51 2d 00 4d 00 50 80
       2.60628e-39 -1.087986e-38 4.161714e-39 -7.346948e-39
000360 b4 75 61 00 5d b1 a2 00 f2 c7 98 80 37 29 4e 00
       8.950267e-39 1.4940976e-38 -1.4030722e-38 7.177954e-39
000370 66 fb 08 01 2c 07 2e 1d 74 9f 2d a0 f0 a3 47 9d
       2.5159624e-38 2.3032416e-21 -1.4706429e-19 -2.6422184e-21
000380 a0 32 a5 80 85 0c 9f 80 0a 42 72 80 88 1b 16 00
       -1.5171018e-38 -1.4606335e-38 -1.0492937e-38 2.030257e-39
000390 30 2a 19 91 75 56 e4 80 4d f0 2f 80 8c 79 f4 80
       -1.2082572e-28 -2.0969508e-38 -4.402472e-39 -2.2451464e-38
0003a0 32 4e 44 a5 6a e5 53 b8 d6 3f 1b 34 cd 0d 9c b5
       -1.7026784e-16 -5.051998e-05 1.4458723e-07 -1.1626922e-06
0003b0 13 b1 53 b8 ec 8a 33 b8 26 d6 fe b8 09 7f bf 38
       -5.0471233e-05 -4.2806307e-05 -0.00012151552 9.131252e-05
0003c0 65 a9 a5 00 58 ee 31 00 43 dd 29 94 03 5d 9b 99
       1.5213624e-38 4.585441e-39 -8.575956e-27 -1.6064192e-23
0003d0 5b 11 4a 80 e2 21 30 00 86 01 ac a4 f7 05 bd 31
       -6.802053e-39 4.420259e-39 -7.459569e-17 5.501302e-09
0003e0 2e d6 f0 30 82 8e 29 a8 e0 f4 f7 b7 0b 7e 8c ba
       1.7523172e-09 -9.412286e-15 -2.9558723e-05 -0.0010718716
0003f0 24 2c 95 ba dc a6 6a b6 4b cd 3f 33 04 5a 73 b0
       -0.0011380953 -3.4965842e-06 4.4657366e-08 -8.8530805e-10

layers.0.bias f4 [16]
000000 e5 4b 23 3f 56 a5 e8 b8 a4 90 0d ba 9e b3 b1 3e
       0.6378768 -0.00011093418 -0.0005400276 0.3470735
000010 2c 00 22 3f 5e 7c f9 3e 35 57 ce 3e 72 4f b8 a0
       0.6328151 0.48727697 0.4030091 -3.1223385e-19
000020 46 da 8a ba aa 9f 34 bd 50 7e 25 3f 1f 5e 03 bf
       -0.0010593615 -0.04409758 0.6464586 -0.5131549
000030 08 70 f8 3e 1c 3a c0 3e 78 50 e7 3e cf 80 f0 3e
       0.48522973 0.37544334 0.4517858 0.46973273

layers.1.weight f4 [8, 16]
000000 2d 7f c2 b9 7b 63 ff 00 b2 59 50 00 23 20 df b9
       -0.00037097317 2.3453738e-38 7.379016e-39 -0.00042557818
000010 a5 78 8d b7 fd 6c a4 35 6f 5b 88 b5 ea 63 a8 80
       -1.686469e-05 1.2250672e-06 -1.01594e-06 -1.5464206e-38
000020 6c df be 80 80 96 67 ac e1 6c a8 38 df 3b c3 b9
       -1.7528893e-38 -3.2910619e-12 8.0311445e-05 -0.00037237906
000030 03 f3 2f b8 4b d4 ba 36 06 bd 81 b8 36 32 4d b9
       -4.1949574e-05 5.567946e-06 -6.186408e-05 -0.00019569029
000040 91 cb 21 3f c5 cf 45 b8 0a b1 ee 35 7b ff c0 3e
       0.6320124 -4.716196e-05 1.7783907e-06 0.37694916
000050 25 50 e7 3e 47 cc 20 bf d6 e7 1b 3f 2d ad a0 00
       0.45178333 -0.628117 0.6090063 1.4755803e-38
000060 d0 66 a7 bb 3e a3 ad 3f e8 6b fd bf 62 2e 7a bf
       -0.0051086918 1.3565443 -1.9798555 -0.97727025
000070 6d 75 ff 3e b4 09 a4 3e 93 63 07 3f 17 cc a9 3e
       0.49894276 0.32038653 0.52886313 0.3316352
000080 7a 4d d7 3c ad a6 9f b8 a8 87 c9 ba e3 24 30 3f
       0.02628206 -7.6127566e-05 -0.0015375512 0.68806285
000090 5d 0c 7d 3e bb a6 83 bf 18 43 0e bd 73 2b 83 80
       0.24711747 -1.0285257 -0.034731954 -1.2046037e-38
0000a0 72 92 0f 3c 68 31 c6 3e 4d c2 22 c0 47 2a 83 bf
       0.008762943 0.3870957 -2.5431092 -1.0247277
0000b0 30 7f a1 3e a9 cf 84 3f 22 7d 70 bd 04 c4 5d 3f
       0.3154235 1.0375873 -0.058713086 0.8662722
0000c0 93 3f 20 3f b3 00 1c ba 12 79 04 a4 27 ac 6c bd
       0.62597007 -0.0005951032 -2.8725488e-17 -0.057781365
0000d0 8f 0f 3e 3f a2 67 3f bf be 31 72 3f fd be d3 80
       0.7424249 -0.74767506 0.9460715 -1.9445803e-38
0000e0 21 94 22 bc 94 54 53 3f f8 2f 0d c0 b3 ba 83 bf
       -0.009923012 0.8255093 -2.2060528 -1.0291351
0000f0 b5 cd 11 3f 86 a3 eb 3d dc 40 69 3f 26 06 85 3e
       0.5695451 0.11505799 0.9111459 0.25981253
000100 ce fe 8e 80 50 e9 82 80 43 82 0b 80 01 b3 5e 00
       -1.3132047e-38 -1.2022311e-38 -1.05692e-39 8.696751e-39
000110 50 c2 1f 00 dd 8b 69 00 92 17 0e 01 c3 36 04 00
       2.916607e-39 9.6929e-39 2.6098192e-38 3.86987e-40
000120 76 57 06 01 56 ca 60 00 e0 d7 1c 80 74 ca 60 80
       2.4674663e-38 8.888792e-39 -2.648835e-39 -8.888834e-39
000130 70 26 1c 01 b8 5a 93 80 6c 2e d0 80 68 e3 d0 00
       2.8680252e-38 -1.3532362e-38 -1.9118436e-38 1.9183361e-38
000140 2c 49 35 b9 fe 64 6e 00 da 04 d7 80 95 bf af b9
       -0.00017288764 1.0138134e-38 -1.9746372e-38 -0.0003352134
000150 14 41 df b6 ad 16 39 36 63 c9 86 34 1c ed 12 01
       -6.653494e-06 2.7580347e-06 2.5105973e-07 2.6986083e-38
000160 a0 4d 05 82 2c 90 84 30 db d4 2e 39 1f a4 bd ba
       -9.793574e-38 9.64524e-10 0.00016673228 -0.0014468468
000170 c9 30 32 b8 7b f7 59 37 37 94 c7 37 c6 e7 0f b9
       -4.248394e-05 1.2991829e-05 2.3791667e-05 -0.00013723885
000180 7a df 73 bd 7e 2c 0d 01 c0 59 39 81 e1 ca 3d bd
       -0.059539296 2.5929531e-38 -3.4043526e-38 -0.04633606
000190 f0 6a 91 bc a3 05 00 bb df 9a cf bc 3f 47 37 01
       -0.017751187 -0.001953461 -0.025342403 3.3662908e-38
0001a0 60 ea ac 80 74 3a 2e bc a8 c8 f5 ba dd f8 df bd
       -1.5879783e-38 -0.0106340535 -0.0018751817 -0.10936139
0001b0 bf bb 48 bd fe e9 07 bb 86 05 71 bd 67 33 0d bd
       -0.049007174 -0.0020738835 -0.05884316 -0.03447285
0001c0 a4 e5 94 3e 7a af 66 bb 11 51 a4 39 74 cd 28 3f
       0.29081452 -0.0035199807 0.00031340917 0.65938497
0001d0 47 cd b9 3e 45 e3 1c bf 26 e2 00 3d e9 92 5b 80
       0.36289427 -0.61284286 0.031465672 -8.409732e-39
0001e0 27 51 58 3b 62 cc d6 3f ae 6b 00 c0 a9 af 47 bf
       0.0033007355 1.6781123 -2.0065722 -0.7800241
0001f0 4c 4e 3d 3e 46 ad 4e 3f da 5b 98 3c 25 a0 27 3f
       0.18486899 0.80733144 0.018598486 0.65478736

layers.1.bias f4 [8]
000000 1d 32 72 ba b9 7e b3 3e 02 7a ca 3e cf 18 24 3f
       -0.0009239035 0.3505762 0.3954621 0.64100355
000010 ef 9d d0 9d 97 3a 69 ba bb 2c a5 bd f9 30 8e 3d
       -5.522044e-21 -0.0008896975 -0.08065172 0.069429345

layers.2.weight f4 [1, 8]
000000 8e 85 6c 3c 7c 0c 94 bf c1 60 26 c0 ba 69 02 c0
       0.014436139 -1.156631 -2.5996554 -2.037703
000010 46 03 e8 80 e2 cf 89 3a 3e e6 fc bc 1b 2d ec bf
       -2.130701e-38 0.0010514224 -0.030871507 -1.8451265
